vercel-project/public/assets/autoencoder_New.pth (torch, 202763 bytes, 32 tensors)

encoder.0.weight f4 [16, 3, 3, 3]
00000000: 926a 6fbe 75ca 15be 6e47 48bd ce9c f53d
00000010: df86 363e 04a2 f83d 7616 2ebe 9b8d 0ebe
00000020: a5b4 1b3e a138 9f3c 7fd8 9d3a e622 e53c
00000030: 84ee 22be 96e3 70bd 6f03 4a3e 3981 a5bd
00000040: f94b 17bc c736 25be 6809 23be 7b8b 5ebc
00000050: d9da fcbd c4fb e9bc 836e a33d aa39 38be
00000060: 4eef a93c 0360 06be 06fb ccbd 0693 8b3d
00000070: 4031 223e 2f03 34bd d95d cfbd bd41 4ebe
00000080: d719 f6bd b53e 35be e636 7bbd 3783 0a3d
00000090: 872d 39be 54f2 353e 3e7f 073e 6e3e 4dbe
000000a0: b6e7 e8bd a790 3f3d 4411 08bd cf82 febc
000000b0: 90ff acbd fbd7 0f3e 1915 e3bd 9e5f 213e
000000c0: 3400 f4bc b31a 9cba f60d ee3d 751d 58bd
000000d0: 0cd0 08be 3d75 2fbd b264 053e 8004 27be
000000e0: 438e 5e3c f09d 19be 65be ff3d a7f6 843d
000000f0: 6e45 8a3d 6898 e83d 74ba 913c 6588 8a3d
00000100: 3437 3cbe c695 8cbd be48 bc3d 87b1 3f3e
00000110: e57e 833d ae99 c9bd df78 243e 4b2f 3cbd
00000120: 72c7 85bd 5970 43be c465 62bd 74c5 2e3e
00000130: ed50 5c3d 80bc e7bd 3b8b d73d 1bf6 15bd
00000140: e408 3f3e 7560 3ebe 4381 67bd a1b3 40be
00000150: 97a1 a7bd c5e8 d73d afea 613e 6cc4 4c3c
00000160: 702b 4d3e cef3 6f3d 4918 b53d d341 1b3e
00000170: ecdf 1a3e 64dd ecbd 55a3 5c3e 7846 143e
00000180: 6315 ddbd e875 a0bd fae4 0fbe 04fa f93c
00000190: 118f 19be f7a6 a43d 4d98 603d 9043 febd
000001a0: b6d0 af3d f2fb 19bd 4aa9 bc3d 10fe fb3d
000001b0: eddf 51be e2f0 443e b752 313e df6a a23d
000001c0: abb6 fabd 8df6 ddbb 3854 59bd 466e 37bc
000001d0: 278a 153e 49dd 5e3d 6e86 293e 1ae1 80bd
000001e0: 60b9 893d 22bc f83d 7873 cabd ed9b 3abe
000001f0: 5c23 71bd 0f3a 2f3e 281c 44be 47b7 15be
00000200: d4b1 ff3d dc48 de3d 2988 5b3e 8c09 a4bd
00000210: 3b54 0cbe 849a 0c3e 76c7 513e 3036 3f3e
00000220: d0eb ae3d c324 d83d 54b1 533e f674 d0bd
00000230: ca74 b1bd 887f 113e 53fd 06be 2c13 e1bd
00000240: d00a 463e 65f3 bc3d 289a a03d 19da 82bd
00000250: 8411 213c cb6e 283e cbda e5bd 4295 c9bb
00000260: 040c 9f3d 6953 5ebd 8fb8 7d3e b830 49bd
00000270: d255 aabc c8c1 f7bc 037a 00be cca3 3ebe
00000280: 55d9 d03d 80f7 233d bef0 87be 6cff 0ebe
00000290: 2d82 283e 1b2b 603d eaf9 903d 9042 f5bd
000002a0: 4f0c c1bd 54f1 f7bc c553 07bd 8427 59be
000002b0: 3eb7 8c3a 8b35 b9bb 91b3 25bd 7010 ad3c
000002c0: 7112 a4bd 32af 2d3d 8f9b 933d 9e62 c9bd
000002d0: 216e 9dbe 67b0 983d 3c09 1f3c 767b 09be
000002e0: 7ec6 2e3e eafb cbbd f602 cf3d 5494 b43d
000002f0: 5ea8 2abe a312 e23d bba6 dfbd 9789 9ebd
00000300: 488c 7fbc f73b 593d 9b64 823e b0cc 8bbd
00000310: f34c 953d da22 3cbe 0c5e a03d 2417 bebc
00000320: 3db7 18be 5314 9d3c 4e71 743e 48c5 363e
00000330: 05de 1cbe 1fc4 cebd bd20 283c ed00 d83c
00000340: 34c1 023e 421e f83d 80c9 7abd 1a58 803e
00000350: 8086 173e 82f0 febd 23ad 913d 8ef8 143c
00000360: 7c06 f23d 5d92 a7bd 0e71 74bd 3a18 0bbe
00000370: b273 b7bc 324d a83d d3bf 2cbe 66d4 b83d
00000380: bfcf 94bd 8182 963d 7c56 cf3c 391b 00be
00000390: fc74 36be 28a9 1bbe 5415 ab3d 92f2 36be
000003a0: d8d2 35ba 8736 7d3d b418 17be 20ea ab3d
000003b0: 7673 1bbe 809c 55be 4306 49be 6720 a5bd
000003c0: 9a91 f2bd 33bb 0c3d 5623 cabc 24fc 543d
000003d0: 0ba7 a33e 5fdc a13e c4ae c1bd 124f ffbd
000003e0: 6c14 fa3d 6bd0 0cbe dc4c 343d cbfc c83d
000003f0: b4ea ef3c 0bd7 083e 6440 683e 3d51 b43c
-0.23380497 -0.14628012 -0.048896246 0.11992799 0.17824887 0.12140277 -0.17000756 -0.13921206
0.15205629 0.019436182 0.001204267 0.027970742 -0.15911299 -0.058810793 0.19727872 -0.08081288
-0.009234422 -0.16134177 -0.15921557 -0.013583059 -0.123464294 -0.028562434 0.07980063 -0.17990747
0.020743992 -0.13122563 -0.100088164 0.06815152 0.158391 -0.04394835 -0.10125322 -0.20142265
-0.12016647 -0.17699702 -0.061331652 0.033816542 -0.18083774 0.17768222 0.13232133 -0.20043346
-0.1137232 0.04676881 -0.03321959 -0.031068234 -0.08447182 0.14047234 -0.110880084 0.15759131
-0.029785253 -0.0011909812 0.116237566 -0.052762467 -0.13360614 -0.042836417 0.13026693 -0.1631031
0.0135837225 -0.15001655 0.12487487 0.06492358 0.06751524 0.11357194 0.017789103 0.067642964
-0.18380433 -0.068645045 0.09193562 0.18720065 0.064206876 -0.09843765 0.16061734 -0.04594354
-0.06532182 -0.19085826 -0.055272833 0.1706751 0.053788114 -0.113152504 0.10524603 -0.036611658
0.18655735 -0.18591483 -0.056519758 -0.18818523 -0.08185118 0.10542444 0.22062181 0.0124980025
0.20036101 0.05858212 0.08842523 0.15161829 0.15124482 -0.115656644 0.21546681 0.14480007
-0.10795095 -0.07834989 -0.14052191 0.030514725 -0.14995982 0.080396585 0.054832745 -0.1241523
0.0858473 -0.03759379 0.09211977 0.12304318 -0.20495577 0.19232515 0.1731671 0.0793054
-0.122418724 -0.006773776 -0.053058833 -0.011195725 0.14603482 0.054410253 0.16555187 -0.06292935
0.067248106 0.121452585 -0.09885305 -0.18223543 -0.058871612 0.17111991 -0.19151366 -0.14620696
0.1248509 0.108537406 0.2143866 -0.080096334 -0.13704006 0.13730818 0.20486245 0.18673015
0.085410714 0.10553887 0.20673114 -0.101785585 -0.08664854 0.14208806 -0.13182573 -0.10989985
0.19340062 0.09226111 0.07841903 -0.06389255 0.009830836 0.16448514 -0.11223372 -0.006151826
0.07765964 -0.054278765 0.24777435 -0.049118727 -0.020792875 -0.03024377 -0.12546544 -0.18617171
0.10197703 0.040030956 -0.2655086 -0.13964623 0.16455908 0.05472861 0.07078917 -0.119755864
-0.09426176 -0.030266441 -0.033038873 -0.2120648 0.0010735763 -0.005652135 -0.04045445 0.021126002
-0.0801133 0.042403407 0.07207405 -0.09833263 -0.30748084 0.07455521 0.0097067915 -0.13426003
0.17067906 -0.09960158 0.10107987 0.08817354 -0.1666579 0.11038711 -0.10920473 -0.07741087
-0.0155974105 0.053035703 0.2546738 -0.068261504 0.072900675 -0.1837267 0.07830438 -0.023204394
-0.1491365 0.01917473 0.23871347 0.17848694 -0.15319069 -0.10096001 0.010261712 0.026367629
0.12769014 0.12115146 -0.06122732 0.25067216 0.14797401 -0.12448217 0.07113101 0.009092463
0.11817643 -0.081822135 -0.05967813 -0.1358346 -0.022394035 0.08217849 -0.1687005 0.09024887
-0.07266187 0.073491104 0.025309794 -0.12510385 -0.17818063 -0.15201247 0.083536774 -0.1786597
-0.000693602 0.06181958 -0.14755517 0.08394265 -0.15180764 -0.20860481 -0.19631295 -0.08062821
-0.118441775 0.034358215 -0.024675053 0.051998273 0.3196338 0.31613442 -0.09457162 -0.12466253
0.122109264 -0.1375138 0.04401861 0.098138414 0.02928672 0.13363282 0.22680813 0.022011394

encoder.0.bias f4 [16]
00000000: e9b9 d3bd ac57 7aba 695e 95bc 7e93 26be
00000010: 611f 193e 2d27 5e3b 1905 3b3d d484 a1bd
00000020: d937 b7bd 610c 003d 3e1d 8b3d 6e35 2e3d
00000030: 1c44 bfbd 0f0e 403e d183 e1bc fd7f f1bd
-0.10338194 -0.00095498073 -0.018233495 -0.16267201 0.14953376 0.0033897862 0.04565916 -0.07886663
-0.08946199 0.031261805 0.06792687 0.042531423 -0.09339163 0.18755363 -0.027528675 -0.1179199

encoder.1.weight f4 [16]
00000000: 865b 833f 2c18 8b3f d843 763f e5cc 7c3f
00000010: 16bb 7a3f 2bb1 773f 9afd 793f 55a9 773f
00000020: b77f 803f 3c64 7a3f 4122 793f b70c 823f
00000030: 95b5 813f 11d4 7c3f f00a 853f 7243 803f
1.0262306 1.0866752 0.9619727 0.98750144 0.9794172 0.9675471 0.9765259 0.96742755
1.0038975 0.97809196 0.9731789 1.016013 1.013354 0.9876109 1.0393963 1.0020583

encoder.1.bias f4 [16]
00000000: 678f 33bd 01c2 18bd 3de3 993d 40f3 d03d
00000010: ea7e c3bd f2a6 233c 4654 33be 3074 fa3d
00000020: 8420 43bd a364 0b3e 56d3 da3d 50ec 163f
00000030: 234b e3bd 0ac9 043d 3c7c bd3b 63c9 e4bc
-0.04383793 -0.03729439 0.075140454 0.10202646 -0.09545691 0.009988533 -0.17512617 0.12229192
-0.04763843 0.13612609 0.106848404 0.58954334 -0.110983156 0.03241829 0.005782632 -0.02792806

encoder.1.running_mean f4 [16]
00000000: 4d7c 3abf ee76 dfbe 3837 893e e335 3b3e
00000010: ba00 073f da80 d43e fb3b 0bbf 5537 ba3e
00000020: 697f 7abf d777 473f 44ef 693f 9193 5a3d
00000030: d01a 58bf ea6b 3e3f 9a55 39bf a8f6 03bf
-0.7284592 -0.43645424 0.2679994 0.18282275 0.52735484 0.41504556 -0.543884 0.3637034
-0.9785066 0.77917236 0.91380715 0.053363387 -0.8441591 0.74383414 -0.7239624 -0.5154824

encoder.1.running_var f4 [16]
00000000: 4ff9 213c 3a8f c03b b56f 4c3b 7dde 323b
00000010: eb09 5d3b 4232 ca3b 7a4f 243c 219e 873b
00000020: ed3d 903c 9d30 8d3c d01f 9c3c 90d2 1d3b
00000030: a385 553c b7a9 333c cbf9 313c 66dc 7e3b
0.0098861 0.005876449 0.0031194512 0.0027293258 0.0033727835 0.006170542 0.010028714 0.0041387235
0.017607654 0.017235095 0.019058138 0.0024081804 0.01303235 0.010965756 0.010862778 0.0038888692

encoder.3.weight f4 [32, 16, 3, 3]
00000000: 169c 67bd 3228 de3d 321d cebc 14cb 3ebd
00000010: 5faf 08bd 6460 80bd f5b3 e9bd 482d 46bd
00000020: ca70 99bb 588e 153d 4292 ab3d e96e f1bd
00000030: f5b3 1e3c fe33 14bd 5c5d 1bbd 69b8 07bc
00000040: 9330 a03d 5325 30bc e84a 333d 47ba 903b
00000050: 7a94 073d cdd8 20bd 10ad c33c f151 afbc
00000060: e9b4 f5bb b807 7dbd 8d41 f6bb 3f91 61bd
00000070: 7982 1e3c b815 9cbd f147 9cbd a6cf 823d
00000080: 8fb8 413d 5da7 b13d 7882 e93d bb0d 32bd
00000090: eff5 b0bd 243a 743d 9868 0bbc 0c2f 90bd
000000a0: d591 913d e9cd 603b f462 26bc 21b2 93bb
000000b0: 8903 203d c128 9a3c 4420 943c 7f4e 97bd
000000c0: 590c 3c3d 3127 58bd 66f0 a63d 6846 e33b
000000d0: f328 ca3d d243 893d d57b a5ba e018 8e3c
000000e0: 2dfe a93c 25a2 87bd eb3f 72bd 2467 92bd
000000f0: 266d cd3c c98a 2e3b 5cad e9bc 5e3f 1cbd
00000100: 97fd 583d 7f58 d23c 7e91 6a3c 647d 20bd
00000110: 069a 82bd 4daf b83c cc2b a9bb 604e c13d
00000120: 07d4 ccbd 796e 8e3d 5a40 703d 19d9 ef3b
00000130: be29 323d 45e1 f9bd 2812 e33c 0e3b 1a39
00000140: cdae 01be 0d71 b53d 4e85 1ebd 2ffe 83bc
00000150: cbec b63d ab45 d9bc 6fc6 48bd 527c 3f3d
00000160: ef73 253d e2e3 213d 4f9e 82bd 330c 363b
00000170: 2fde 1cbd 26cb c5bc f67d 3bbd d69e 7c3d
00000180: 4a38 043d 8e9e 29bd 1710 af3d 6f89 a7bb
00000190: b91d 7f3b 0c11 81bd dca9 a8bd 6576 963b
000001a0: 23ea 5d3c 8fd9 97bd 75c5 073e ec0f fd3d
000001b0: 8ee1 9d3c eab3 c93d ef1b 4d3d 527b c9bd
000001c0: 4728 be3d 3665 cdbd d05d 12bd 3fec 0cbd
000001d0: adb4 86bd 66ec 5a3b 8aa0 6eba ab66 37bb
000001e0: 1a59 5f3c a641 c13d 31ba a93d 2af1 983d
000001f0: 00c4 953d c59b ea3d 339b cfbc c01f f83c
00000200: 360f 49bc fb45 cabd b4d2 5fbd b206 16bd
00000210: 0725 adbd e205 053c e5cd a2bd 6baf 99bb
00000220: c2dd b83d 9936 21bd 5689 1a3d d554 623d
00000230: 8c00 d2bd 2f6b cdbd a08f 95bd 6107 bbbd
00000240: 2d91 98bd 21a8 96bb 6ca0 9abd bda4 8abd
00000250: cb31 62bc 3def 7dbd c9b4 3a3d b300 8abc
00000260: 5d83 b9bd 3070 82bc c6b0 08bc 038c edbb
00000270: 9569 6f3d 06d4 b73d 822e d1bd acdf dbbc
00000280: cf0b 983d ab6b a6bd 5f9a be3d 3443 d43d
00000290: a45d 8a3c 9905 c93a b8f4 63bd b00e 5bbd
000002a0: 7dfa 463b 42aa 1c3c 1de0 79bd 983d 523d
000002b0: 8618 5cbc 8a73 2e3d 9cf2 593d 5259 493d
000002c0: 4138 6cbd a726 3c3c 82a3 c93d a658 c13c
000002d0: f217 573d 89e6 aa3d 1161 64bd 91f7 70bd
000002e0: 2624 6b3d f0d7 8dbb 812b 373c 12da 61bc
000002f0: 2826 41ba a9ee e53c 41d5 16bd 5adf 363d
00000300: 9044 253d 70cd 1dbc d281 f83c dc17 3cbd
00000310: cd93 ffba a7d2 c23c 65ab 15be ce9a 38bc
00000320: 6dc4 a6bd e2e2 76bd 306c ae3d d086 94bd
00000330: da89 a03c b6ba 073d d89d d3bd 15c6 c93c
00000340: 039c 713d 3a43 b3bd 0fc5 a0bd 81c8 a63d
00000350: 4ab0 823d 0d9b a0bd 434e 0d3d e8af 08bc
00000360: 5439 f4bd 3e96 893c f97e 5ebc fad7 31bd
00000370: ed3c 383d 4e7f d2bd 3afe 173d 0f0d c93d
00000380: 7964 023d aa7d ba3c 420d da3b 06ec a7bd
00000390: 0a60 363a 07ed 163d 91d9 03bd 633c a8bd
000003a0: 1676 7b3d 4ae3 983d 15ad 95bd 31d3 983c
000003b0: 776c b63c ec5d a33d b466 863d 17d6 ad3d
000003c0: 06f1 5cbd 4d94 3e3d a141 9b3d 58ba fcbd
000003d0: 7b1e 87bd 7bcb 063b 7f10 1d3e fedd b83d
000003e0: b5fa 263d 478a 5f3c 4356 0dbd 9b1f 423d
000003f0: a61f 593b 1029 853d 25f3 d4bd df19 68bc
-0.05654534 0.108475104 -0.025160406 -0.04658039 -0.033370372 -0.06268385 -0.11411277 -0.048383027
-0.004682635 0.036512703 0.08377506 -0.117887326 0.00968646 -0.036182396 -0.03793083 -0.008283713
0.07821765 -0.010751086 0.043772608 0.0044167372 0.033100583 -0.039269257 0.023886234 -0.021401377
-0.007498373 -0.06177494 -0.0075151385 -0.055070158 0.009674662 -0.0762133 -0.07630909 0.06387262
0.04729515 0.086745 0.11401838 -0.043470126 -0.08640658 0.05962576 -0.008508824 -0.070402235
0.071078934 0.003430242 -0.010155428 -0.0045073186 0.03906587 0.018818261 0.018081792 -0.07388019
0.045910213 -0.05277175 0.08151321 0.0069358833 0.09871092 0.06702389 -0.0012625406 0.017345846
0.020751083 -0.066227235 -0.05914299 -0.07148579 0.02507646 0.0026633015 -0.028525047 -0.03814637
0.052976217 0.025676964 0.014316915 -0.03918208 -0.06377034 0.022544527 -0.0051626917 0.09438777
-0.100013785 0.06954665 0.05865512 0.007319581 0.04349684 -0.1220117 0.027718619 0.00014708584
-0.12664337 0.08859453 -0.038701348 -0.016112415 0.089318834 -0.026522478 -0.049017366 0.04674942
0.040393766 0.039523967 -0.06377851 0.0027778267 -0.03829783 -0.02414472 -0.045774423 0.061674915
0.032280244 -0.041410975 0.08547991 -0.005112819 0.0038927628 -0.063020796 -0.08235523 0.0045917504
0.013544592 -0.07414543 0.13258918 0.123565525 0.019272592 0.09848769 0.050075468 -0.098379746
0.09285026 -0.1002907 -0.035733998 -0.03440499 -0.0657743 0.0033405065 -0.00091029017 -0.002798478
0.013632083 0.094363496 0.08287466 0.074678734 0.07312775 0.11455492 -0.02534256 0.030288577
-0.012271693 -0.09876629 -0.0546443 -0.03662748 -0.08454328 0.008119078 -0.079494275 -0.004690101
0.09026672 -0.03935871 0.03772863 0.055256683 -0.102540106 -0.10030209 -0.07302785 -0.09132267
-0.07449565 -0.0045976792 -0.07550129 -0.067697026 -0.013805817 -0.061995734 0.045582566 -0.016846037
-0.09058259 -0.015922636 -0.008342927 -0.0072493567 0.0584503 0.08975987 -0.10213949 -0.026840053
0.07424127 -0.08126005 0.09306788 0.103643805 0.016890354 0.0015336751 -0.055653304 -0.053480804
0.0030361705 0.009562077 -0.061004747 0.05132827 -0.013433581 0.042590655 0.053209886 0.049157448
-0.057670835 0.011483825 0.0984564 0.023601841 0.05251307 0.08344752 -0.055756632 -0.058829848
0.05740752 -0.0043287203 0.011179806 -0.013784902 -0.00073680514 0.028067904 -0.03682447 0.0446466
0.04034859 -0.0096315 0.03033534 -0.04592119 -0.0019499004 0.023782087 -0.14616163 -0.011267377
-0.08142934 -0.060274966 0.08516729 -0.07252276 0.019596983 0.033137046 -0.10332841 0.024630586
0.058986675 -0.08753057 -0.07850086 0.08143712 0.06381281 -0.078420736 0.034498464 -0.008342721
-0.11924997 0.016795274 -0.013580077 -0.043418862 0.04497998 -0.10278188 0.037107684 0.09816944
0.0318341 0.022765 0.0066544125 -0.08199315 0.000695706 0.03684714 -0.03218991 -0.08214643
0.061391912 0.07465227 -0.073084034 0.018655391 0.022268517 0.079768986 0.06562558 0.084881
-0.053940795 0.04652815 0.07580877 -0.1234023 -0.065976106 0.002056806 0.15338324 0.09026717
0.040766437 0.013643808 -0.034506094 0.047393423 0.0033130436 0.06501973 -0.10397939 -0.014166324

encoder.3.bias f4 [32]
00000000: f21e a1bd 954f 633c cb10 84bd aa75 dfbc
00000010: 70bd 2d3d 5522 9b3d 6438 abbc 522b 6c3d
00000020: 091a d2bb d426 89bc da7f 20bc 1e8c 1abd
00000030: 8c89 bb3c 51c9 37ba 66fb 25bd 3c1d 593d
00000040: 989d 18bd e05c 68bd 7b31 ed3c a9a4 a6bb
00000050: 9000 3cbd 4345 8bbd b306 cdbc 4bb6 82bd
00000060: 0f9c 393d 1a11 28bc b12f 303d 4707 263d
00000070: c74b db3b bb6d 51bc 365a 30bd 3ba5 9a3c
-0.078672305 0.013873954 -0.064485155 -0.027277786 0.04241699 0.07574908 -0.020900913 0.0576585
-0.006411795 -0.016742148 -0.009796107 -0.037731282 0.022892736 -0.00070108945 -0.040522955 0.053006396
-0.037259668 -0.056729198 0.028954258 -0.005085547 -0.045898974 -0.0680032 -0.025027608 -0.06382426
0.045314845 -0.010257984 0.043014232 0.040534284 0.006692383 -0.012782509 -0.04305478 0.018877616

encoder.4.weight f4 [32]
00000000: 5287 713f 7841 7e3f 6e12 7f3f bb29 743f
00000010: 8665 803f 206a 7b3f 2cc2 7a3f 01c6 773f
00000020: b60c 863f dd6d 833f 387c 853f d75a 853f
00000030: 1f64 783f 9512 793f 2fb4 773f 96d6 793f
00000040: 0b85 7b3f 38cb 773f 595e 813f 706a 823f
00000050: 74f5 7d3f a107 753f e711 7a3f 95ff 853f
00000060: 4018 703f 20d5 8c3f 2e30 823f c269 7b3f
00000070: 8a06 763f bacc 7e3f 3a8c 883f 522b 7a3f
0.9434711 0.9931865 0.99637496 0.95376176 1.0030982 0.9820881 0.9795253 0.96786505
1.0472629 1.0267903 1.0428534 1.0418347 0.9702777 0.9729398 0.96759313 0.9759306
0.9824988 0.9679446 1.0106918 1.0188732 0.99202657 0.95714766 0.97683567 1.0468622
0.93787 1.100254 1.0170953 0.9820825 0.9610373 0.9953114 1.0667794 0.9772235

encoder.4.bias f4 [32]
00000000: cc38 523d b3ca 2abd 275b a9be e9d2 6cbc
00000010: f5ee adbd a5f6 7abe f7a4 9a3b 3a80 8dbc
00000020: 856f 453e a33e 20be 1e59 c83e 6abf 293f
00000030: a549 e6bc 9bef 41bd c7da 173e 5cad eebc
00000040: 0fed bf3d ee4e 6b3b c3d8 5a3c fa13 9d3d
00000050: f2fd f5bc 4cda 89bd b6f0 c6bb 37ff 193e
00000060: 0058 9abe 3fe8 793e 4b23 aabc 250f 83bc
00000070: f028 94bd 7565 09be bec2 06be 88ae 8dbe
0.051323697 -0.041697215 -0.33077356 -0.014454582 -0.08492843 -0.2450815 0.0047193724 -0.017273057
0.19280823 -0.15648894 0.3913049 0.663077 -0.028111288 -0.047347646 0.1482955 -0.029135399
0.09371387 0.00359052 0.013357344 0.07669826 -0.030028317 -0.0673109 -0.0060711754 0.15038763
-0.30145264 0.24405001 -0.020768782 -0.015998432 -0.07234371 -0.13417609 -0.13160226 -0.2767222

encoder.4.running_mean f4 [32]
00000000: 35d8 b8bd 3075 fa3d 9fc7 f53e aa42 833e
00000010: 2c8f 7b3e 763b 403f 6419 5dbf 3d3d e63e
00000020: 2551 443d b9fc 5d3f 2f81 8b3e 8f97 36bd
00000030: f307 a13d 4f0d 53be 2193 aebc ea8d 4fbe
00000040: e390 883d 813e 4dbf 1f77 6bbd ed4c 1d3c
00000050: 6d23 713e 885d c43e 6d46 dfbe b668 1abf
00000060: 8830 5c3f fe58 acbe d4a2 2f3d 173c 583d
00000070: 7953 6c3f c7bb 033f 7d2b c03e 0336 a33f
-0.09025613 0.12229383 0.4800386 0.25636798 0.24566334 0.7509073 -0.8636687 0.44968596
0.047928948 0.8671375 0.27246997 -0.04457813 0.07862844 -0.20610546 -0.02131039 -0.2026898
0.0666826 -0.801735 -0.05748665 0.00960086 0.2354867 0.3835261 -0.43608418 -0.60316026
0.8601155 -0.33661646 0.042879894 0.05279168 0.9231487 0.514584 0.3753318 1.2750858

encoder.4.running_var f4 [32]
00000000: d982 8a3f 22e3 583f adbd 163f ee5b 203e
00000010: e655 dd3d 42ba 1e3f 76e0 f03f 94db 373f
00000020: 9b24 6b3e 0d37 8e3f 2bdb 803e 47dd 1d3e
00000030: 2154 223f 2504 cc3f 2aed 993d ee0a cf3e
00000040: 4fca 7e3e 8893 0240 221d 0440 615a be3f
00000050: 1e2e f13f 1408 873f 66b8 3740 1473 c83f
00000060: 324c 273f 5ef1 f43e 81a5 ef3f ec79 d13f
00000070: 3c51 493f bbb6 263f 66d7 f13e 3954 a23f
1.0821182 0.8472158 0.5888317 0.15660068 0.108073995 0.62002957 1.88185 0.71819425
0.22963183 1.111055 0.25167212 0.15416442 0.6340962 1.5938765 0.075159386 0.40438026
0.24881862 2.0402546 2.0642781 1.4871331 1.8842199 1.054934 2.8706298 1.5660119
0.6535064 0.478404 1.8722383 1.6365333 0.7863958 0.65122575 0.47234648 1.2681953

encoder.6.weight f4 [64, 32, 3, 3]
00000000: c1a1 3dbd 4358 b43c 32cc 59bc 0bff 84bd
00000010: fcd3 163d 94ab 673d 61ac acbc 3a55 c0bc
00000020: 4e69 013d 86cd d33c 15ba 6b3d 24bc 83bd
00000030: cf1f 083d d11c 80bd e962 4b3c fa87 90bc
00000040: 2516 4dbd 5d09 28bd 7531 aa3c 15ea b13c
00000050: d50f 5cbd 1951 e0bc 7c52 7f3c 41af e9bd
00000060: 2830 b6bd 2f42 473d d5dd 9fbd 0b87 933c
00000070: f206 e13c 012e c63b e4c1 5f3c 0c94 a6bb
00000080: f4c1 9e3c fc3e e63c 3bca afbc ecd2 3d3d
00000090: 6a45 bfbc 062f 493d 6537 7fbb 76a8 94bb
000000a0: 5a12 bc3a 4ba6 a1bd f5fb 31b9 9ecc 61bc
000000b0: c7ac 7f3d 75d2 04bd a6c3 12bd ad30 8d3d
000000c0: 7330 8bbd d3e6 0abc 3107 47bd ae3f cbbd
000000d0: 08c5 c63c edad 9bbd fbab d9bc 736b 383d
000000e0: fb74 4f3c 8f10 963c c5c1 a93c ec78 77bd
000000f0: 58ae 84bd 1185 cbbc 8c36 05bc 1127 79bb
00000100: c5b7 16bc 5078 8e3b d108 0e3d 4b71 123d
00000110: d2f3 3abd 6633 713d ccee 3a3b 36ea 43bd
00000120: 6c14 28bd 1a44 4dbd ef4b b1bb 2e72 223d
00000130: e904 48bc 03c7 e43d 45e3 c43c 0429 e73c
00000140: 7dfa b1bd eda4 033c e6a2 16bc cf21 c83a
00000150: f9cb 45bd dbd6 5d3d adb6 b8bd e320 2bbe
00000160: 88db abbd 326b 9fbd 47cc 1a3b 0c0c 0ebd
00000170: 41d2 2c3d 1da4 5c3d 4663 c0bd 3f84 5a3d
00000180: 04bd a7bb a580 163c 7118 8abc 0475 7cbd
00000190: 8631 ad3d 7088 4fbd cd50 cfbd 9e0d 773e
000001a0: 3e64 00be 590d 8bbc 3a09 adbd ffa7 373d
000001b0: b520 983b 31b1 053d 181d d4bc 7412 1abd
000001c0: 31da 4dbd 41dd 453d 8cc2 193d 2dcb 49bc
000001d0: 37f8 7b3c b820 853d d96f eabc 2b1a 50bd
000001e0: a996 acbc 314f 753d 3a67 5cbd 57eb 363c
000001f0: 3795 d23c 155e 303c 4bc2 a5bc 3692 e5bc
00000200: 7800 823d ffb2 583d 0b5e f8bc 4ea6 2d3d
00000210: 9932 dcbb 3c5c 4b3d 293c b43c b13e 1d3d
00000220: 69b7 b7bc de78 c23b f413 1cbd afaa 183d
00000230: c333 fb3c bf1e 613d 181b 713b 18fc 703d
00000240: 95a4 11bd eddc 733d 0901 983a d793 c13c
00000250: 6818 7a3d 12e5 e3bc 0ace afbc 7c49 bb3b
00000260: fe1b 813d 6672 97bc 9a78 a0bd fdd4 4f3d
00000270: be3f 7cbd 4698 03bb ebd0 793c 1f11 fbbc
00000280: 3932 1d3d 8528 1ebc 5f4b f5bb dec4 86bd
00000290: 75eb c3bc 9ef9 51bc 4601 f63c 5e62 25bd
000002a0: e170 82bd b473 fbbc 2d03 2fbc 6152 3bbd
000002b0: 6b18 3ebc a435 3fbc c5c6 c03c aeee efbb
000002c0: be13 d13b d696 493d 9920 a23d 5c99 003d
000002d0: fa06 243a 6c69 d439 3328 1d3d b55c de3b
000002e0: 1956 393d 176f f43c f366 78bd 1a22 4b3d
000002f0: 8c0f c5bc c83f f53c 2c98 953d 9509 043d
00000300: 6fe9 bc3a 617d 873d 707a 9bbd b11c 1dbd
00000310: 2aa0 053c 3b1a 8639 4518 283d c055 a13c
00000320: 226d 34bc 9530 efbc f544 0cbe 0f80 58bb
00000330: f2a2 873d d0d9 243d 032b 483d edfd 763c
00000340: eabf 923d e98d e63b 866c 81bd e4b7 963c
00000350: e652 95bd 4670 3fbd fe50 cb3b 910e da3b
00000360: 0b80 bb3d b87d 933d 5a59 08bb 46d8 08bb
00000370: f4d2 e43c 9dad 833b 247a 84bc a7c0 873b
00000380: 1a51 253d 1377 97bc aae9 813d abd5 d5bc
00000390: fd23 06bc 0844 a9bc 0523 ba3b 2708 db3c
000003a0: 9a2c 0a3d 24c6 813d 95bf 9cbc 88c3 4bbc
000003b0: 290e e9bc f1dc 1ebd 0d92 453d efdf c0bd
000003c0: f76c 3cbd 1d86 7b3d b8d7 1ebd ed58 8cbc
000003d0: 2d10 d93c 0316 51bd 202e 293c 4a79 66bc
000003e0: 1334 653c 84bc 923b 37cd 0c3d fd9d 53bd
000003f0: c4b4 81bc 9b59 75bc 5992 00bc 911b 0cbd
-0.04629684 0.022014743 -0.013293313 -0.06493958 0.036823258 0.056560114 -0.02107829 -0.02347814
0.031594567 0.025854837 0.05755051 -0.06432369 0.03323346 -0.06255496 0.012413719 -0.017642964
-0.050069947 -0.041024555 0.020775536 0.021718064 -0.053726036 -0.02738242 0.015583631 -0.1141038
-0.08895904 0.048647102 -0.07805983 0.01800873 0.027469132 0.0060479646 0.013657067 -0.0050835665
0.019379593 0.028106205 -0.021458736 0.04634373 -0.023348529 0.04911711 -0.003894293 -0.0045366837
0.0014348731 -0.07893046 -0.00016973897 -0.013781695 0.062420633 -0.03242727 -0.035831116 0.0689405
-0.0679635 -0.008477884 -0.048590843 -0.09924255 0.024263874 -0.07601533 -0.026571264 0.045024347
0.012662168 0.018318443 0.02072228 -0.060418054 -0.06478566 -0.024843724 -0.008130681 -0.003801767
-0.0091990875 0.0043478385 0.034676377 0.035752576 -0.04564268 0.058886908 0.0028523682 -0.047830783
-0.0410351 -0.050113775 -0.0054106633 0.03965967 -0.012208202 0.11170771 0.024034152 0.0282178
-0.08690355 0.008034927 -0.009194111 0.0015268865 -0.048290227 0.05415998 -0.09019218 -0.16711764
-0.08391482 -0.07784118 0.0023620294 -0.034679458 0.0421927 0.053867448 -0.09393935 0.053348776
-0.005118968 0.009185945 -0.016857358 -0.061635032 0.084567115 -0.050667226 -0.101228334 0.24126288
-0.1253824 -0.016974138 -0.084490255 0.044837948 0.004642571 0.032639686 -0.02589278 -0.037615255
-0.05025691 0.048306707 0.03753905 -0.012316507 0.015379003 0.06500381 -0.028617786 -0.050806206
-0.021067934 0.059889976 -0.053809382 0.011164508 0.025705917 0.010764618 -0.020234248 -0.02802382
0.06347746 0.05290508 -0.03031828 0.04239493 -0.006719899 0.04964851 0.022001343 0.038389865
-0.022426324 0.0059348186 -0.038104966 0.03727215 0.03066433 0.054960962 0.003678983 0.058834165
-0.03555735 0.059536863 0.0011596988 0.023630066 0.061058432 -0.02781919 -0.021460552 0.005715547
0.06304167 -0.018487167 -0.07835503 0.05074023 -0.061584227 -0.0020079776 0.015247564 -0.030647812
0.038377974 -0.009653215 -0.0074857916 -0.06580518 -0.023915986 -0.012815861 0.030029904 -0.040377013
-0.06369186 -0.03069482 -0.0106819095 -0.04573286 -0.011602501 -0.011670504 0.02353228 -0.007322154
0.0063805273 0.049216114 0.07916374 0.031396255 0.0006257143 0.00040514336 0.038368415 0.006785954
0.045248125 0.029838128 -0.060645055 0.04959307 -0.024055265 0.02993764 0.07304415 0.0322357
0.001441283 0.06615711 -0.075917125 -0.03835744 0.008155862 0.00025578015 0.04103877 0.01969421
-0.011012347 -0.02919797 -0.1369818 -0.0033035313 0.06622876 0.040246785 0.048869144 0.015075189
0.07165511 0.00703596 -0.06319527 0.018398233 -0.07291202 -0.04673793 0.0062047234 0.0066545685
0.09155282 0.07201713 -0.002080521 -0.0020880862 0.027932622 0.004018499 -0.016171522 0.004142839
0.040360548 -0.018489396 0.06343396 -0.026102861 -0.008187291 -0.020662323 0.005680444 0.026737286
0.03373394 0.063366205 -0.019134322 -0.012436755 -0.028449135 -0.038784925 0.048234988 -0.09417712
-0.046002354 0.061407197 -0.038779944 -0.017132247 0.026496971 -0.051046383 0.010325938 -0.0140670035
0.013989466 0.004478039 0.034375396 -0.05166434 -0.015833266 -0.014974977 -0.007847392 -0.034205977

encoder.6.bias f4 [64]
00000000: 0240 42bd 469b 1e3c 5285 8c3b b66e 05bd
00000010: 8cc9 2ebd 8254 963c 3a63 473c 61c0 223d
00000020: 38c6 f83c e877 1dbd 64ad f13c 3e62 5dbd
00000030: 31cd 53bd 4362 c03c 9d34 5c3d 83f4 db3c
00000040: 193d 37bb 60e5 e7bc 6400 6b3d c0f5 1fbd
00000050: a717 593d 9ee7 0fbd 69fe 5ebd e28c f439
00000060: 9316 883c e6b9 48bd 7f8b 9abc cea2 3fbb
00000070: 218a 9dbb 0788 ecbc 539c 5d3d 8692 30bd
00000080: 0a0c 133d 3ca1 873c 036a ccbc e2a9 ce3c
00000090: 4037 4cbd 48a0 28bd 66bf 003d 1f62 fabc
000000a0: c5b0 e73c 64ea 64bd c05d 293c b57b 63bd
000000b0: d2ff e13c 48fb 5e3d 0364 0b3d 7c74 703c
000000c0: c075 223d f037 563d e2f6 033d 202c cb3c
000000d0: 1ad0 943c c442 513c 8215 223d 50bd 3e3d
000000e0: ce35 8ebc b4ed 343c afbe 013d 2b00 47bd
000000f0: 087d 38bd a429 85bc 042a 0d3c 73d1 193d
-0.047424324 0.009680575 0.004288354 -0.032576285 -0.04267268 0.018350843 0.012169654 0.039734248
0.030367956 -0.03844443 0.029501624 -0.05404877 -0.051709358 0.023484355 0.053761113 0.02684999
-0.002796 -0.028307617 0.05737342 -0.039052725 0.053001072 -0.035132997 -0.054441843 0.00046644273
0.016612327 -0.04900541 -0.018865345 -0.0029241326 -0.004807726 -0.028873457 0.05410416 -0.043108486
0.035900153 0.016556375 -0.024952894 0.02522749 -0.049857378 -0.04116848 0.03143253 -0.030564366
0.028282532 -0.055887595 0.010337293 -0.055537898 0.027587805 0.05443886 0.034030925 0.01467621
0.039663076 0.05229944 0.032217868 0.024801314 0.018165637 0.012772266 0.039571293 0.04656726
-0.01735964 0.011043001 0.03167599 -0.048584145 -0.045041114 -0.016255207 0.008615974 0.037553262

encoder.7.weight f4 [64]
00000000: 7d74 7e3f 9ad5 7c3f cd73 803f acd9 723f
00000010: ac69 803f 55ed 7b3f c49f 7a3f 706a 843f
00000020: a471 7a3f ef3f 7b3f 495c 723f ba5d 713f
00000030: 8694 683f 3651 823f bccb 813f 7447 803f
00000040: 67d5 7a3f 66d7 6b3f 3620 6d3f 06b3 863f
00000050: 0896 7e3f abd3 7b3f 9a39 813f 9798 6f3f
00000060: baaf 7c3f f8de 803f 9184 7d3f 8d46 743f
00000070: 7867 843f fd85 673f 35f1 733f fba5 7f3f
00000080: 736e 753f 86c4 7e3f 7238 793f 0aba 6e3f
00000090: e1b3 803f b2b3 833f eb18 873f 74a7 7c3f
000000a0: dc19 843f 497f 883f 9f1d 753f 0454 803f
000000b0: 56ac 863f 416e 853f e4cd 833f 2408 803f
000000c0: 46f2 833f 2393 803f 5df6 853f 4b94 813f
000000d0: 6860 783f b3f9 823f 338c 853f b23e 6b3f
000000e0: b0f4 7e3f 713f 713f 8c82 7b3f 3bfe 833f
000000f0: 3101 7d3f e9aa 7e3f 10a5 7f3f 76eb 803f
0.99396497 0.9876343 1.003534 0.9486339 1.0032248 0.98409015 0.97900033 1.0344982
0.9782965 0.9814443 0.94672066 0.9428364 0.9085163 1.0181034 1.01403 1.0021806
0.97981876 0.92125547 0.92627275 1.0523384 0.9944768 0.98369855 1.0095704 0.9359221
0.9870564 1.0068045 0.99030405 0.9542015 1.0344076 0.90438825 0.9528993 0.9986264
0.9587166 0.9951862 0.97351754 0.93252623 1.0054895 1.0289214 1.0554479 0.98693013
1.0320392 1.0663844 0.95748323 1.002564 1.0521343 1.0424272 1.0297208 1.0002484
1.0308311 1.0044903 1.0465809 1.012338 0.97022104 1.0232452 1.043341 0.9189254
0.99592113 0.9423743 0.98246074 1.031196 0.9882994 0.9947954 0.9986124 1.0071857

encoder.7.bias f4 [64]
00000000: f881 243d 9d5f 7bbd 2a86 543d 8972 18bb
00000010: 8dea c33d 2371 203e 4ae6 cdbc d09c a23d
00000020: 2c8c ebbd 8687 b33d d6c8 b738 ca62 493e
00000030: fb04 9b3d 9a17 173e 5620 7f3b cd68 babc
00000040: e63b 31bd c74d ad3c a0bc 3ebd ee3d 0d3e
00000050: 1713 783d 032e 0f3e 02be 523e 0058 30bd
00000060: 36ac 063e d018 403c b3e3 993d e9e9 c63c
00000070: 113e bc3d 5992 e9bc 887c 333e dc9d 97bd
00000080: a0e3 473c 9946 983d 8fd6 5a3d 37ff 8bbd
00000090: b381 6fbd 876e 633d 851d 763e f5a8 28bb
000000a0: 78f1 cc3c 8187 953d ca4e bc3c 5645 3b3d
000000b0: 9f99 2c3d e232 a33d aeb3 2c3d 225e 4a3d
000000c0: e3e4 cd3d d61a 303e f6f9 013e 9080 0c3e
000000d0: 3786 913d 1be9 ab3d 359a 4e3e d52c 4fbe
000000e0: 81da 21be d665 023c 4325 d9bd 82ec 103e
000000f0: d206 f93c d7e7 183e 158f 2d3d 76f4 173d
0.04016301 -0.06137048 0.05188576 -0.0023261628 0.095662214 0.15668158 -0.025134224 0.07940066
-0.11501345 0.087660834 8.7635286e-05 0.19666591 0.07569309 0.14755097 0.0038929186 -0.022755051
-0.043270014 0.021155251 -0.046566606 0.13793156 0.06056508 0.13982396 0.20580295 -0.043052673
0.13151631 0.011724666 0.07514133 0.024281459 0.09191526 -0.028512167 0.17527974 -0.07403156
0.012200266 0.074353404 0.053427275 -0.06835788 -0.0584733 0.05552533 0.24034698 -0.0025735472
0.025017485 0.07301236 0.022986788 0.04572042 0.042138692 0.079686895 0.042163543 0.04940618
0.10053422 0.17197737 0.12693009 0.13720918 0.071056776 0.08394071 0.20176013 -0.20231946
-0.15806009 0.00795885 -0.1060281 0.1415272 0.03039876 0.1493219 0.04237278 0.03709837

encoder.7.running_mean f4 [64]
00000000: 6341 64be f5bb 2d3f ce24 3f3f 5278 dc3e
00000010: 49f5 00be 3f4f f93e 0995 033f c2fd 4a3e
00000020: 2b66 e93e 1b60 2ebf 1739 ffbd 3e99 1f3e
00000030: 2909 0cbe 0b1e 97be d6a7 cc3e 76b7 003f
00000040: 54c3 643e 13b2 25bf adc8 2a3f a0b1 993e
00000050: 4391 3ebf 19cf 6cbe 6511 013f 9423 0b3f
00000060: 9492 23bf a694 06bf d677 8abe fc39 f7be
00000070: 14d8 913e 6e91 a33d 986c d73e d8b9 e43d
00000080: bac4 423e 0f7f 4ebf f611 023e 40fe d43e
00000090: c773 f03e 9e37 a7be 9935 d13e abb4 383f
000000a0: e773 12bd bdf8 aabe 706a 82bf 1f2d ed3e
000000b0: 0f72 5dbf 15ce 06be 648f dbbe 635d 2fbe
000000c0: d32c 83bf 628c 9bbd 1077 153e 9c4c 863c
000000d0: 6375 0abf fd8a 10be 3d4a a83e a26c 873f
000000e0: 005e ff3d 18d7 3f3e a764 ec3e d237 033d
000000f0: 039a 28be 6662 18bd 9c88 a53d 9199 9bbd
-0.22290568 0.67864925 0.74665534 0.43060547 -0.12593569 0.48693272 0.51399285 0.19823363
0.4558576 -0.68115395 -0.12462061 0.15585801 -0.1367537 -0.29515108 0.399718 0.5027994
0.22340137 -0.64724845 0.66712457 0.3001833 -0.744404 -0.23125876 0.50417167 0.5435116
-0.63895535 -0.5257057 -0.27044553 -0.48286426 0.28485167 0.07986723 0.42075038 0.111682594
0.19020358 -0.80662626 0.12702164 0.41600227 0.4696333 -0.3265962 0.40861204 0.7215068
-0.035755064 -0.33392897 -1.0188732 0.46323487 -0.86502165 -0.13164552 -0.42882836 -0.17125468
-1.0248054 -0.07595135 0.145962 0.016393952 -0.5408537 -0.1411552 0.3286914 1.0580027
0.12469101 0.18734396 0.46170542 0.032035656 -0.16465001 -0.037203215 0.08082697 -0.0759765

encoder.7.running_var f4 [64]
00000000: 726d 723f 25a7 0340 a6b6 5540 ded8 c33e
00000010: 87dc 083f 7112 de3e 3ab8 5240 58a4 6c3f
00000020: c225 7740 ca41 2840 b464 1140 d205 ab3e
00000030: 4d89 1d3f 2986 933f a43f 7b3f 99ca 9240
00000040: 47ea 3a40 f9a5 613f 42b1 3c3f 65c8 2a40
00000050: 17ad 7740 c209 703f a8af c03f d40e 373f
00000060: 2c19 5640 5489 bf40 dcfa 533f 76bf b43f
00000070: 1b60 933f ce58 2a3f 1f47 e33e 6d85 7c3f
00000080: 5d85 c13f 25e3 b440 5d31 af3f 35d5 d43f
00000090: 36f4 e73f 5f3b 223f 9c25 0940 b2ee 393f
000000a0: 4e3f a73f 909e 3b3f c8d4 3340 3aaa 113f
000000b0: 907b cd3f b651 713f 0d1f b93f d858 3140
000000c0: 76b2 2c40 a7f6 2a3f c572 bf3f 6ed9 0740
000000d0: 75a6 7940 27f0 323f 2c60 f83f 3b18 1e3f
000000e0: c9c3 d63e 6cc9 783f b23d 2e40 644a 793f
000000f0: d0a8 2c40 9a25 e03f 15d6 1e40 e963 993f
0.9469825 2.0570767 3.339273 0.38251394 0.534615 0.43373445 3.2924943 0.9243827
3.8616796 2.6290154 2.2717714 0.33402878 0.6153763 1.1525317 0.9814398 4.587231
2.9205492 0.8814388 0.73707974 2.668481 3.8699396 0.9376489 1.5053606 0.71507
3.3452864 5.9855137 0.82804656 1.4120929 1.1513704 0.66541755 0.443902 0.9864109
1.5118824 5.6527276 1.368694 1.6627566 1.8121402 0.63371843 2.1429205 0.72629845
1.3066194 0.7328882 2.8098621 0.5690037 1.6053333 0.94265306 1.4462601 2.7710476
2.6983924 0.6678261 1.49569 2.1226459 3.9007847 0.69897693 1.9404349 0.6175572
0.41946247 0.97182345 2.7225156 0.97379136 2.6978035 1.7511475 2.4818165 1.1983615

decoder.0.weight f4 [64, 32, 3, 3]
00000000: 8d95 313c 86d3 b63b 2e4c d93b 51f2 fbbc
00000010: 7f49 78bb 05e6 91bc 273f c7bc f77e 24bd
00000020: e1b5 843d be14 813c fbf8 7abc 5467 dfbc
00000030: f0b4 ec3c 5dd3 66bd 4b4f 4bbc b016 223d
00000040: 0f23 fd3c 32fa 5cbd c419 97bc 9337 25bd
00000050: b5b4 a63c fffb 363d 0a92 18bc 7d7a b8bb
00000060: 8710 113c 0384 90bd 0156 b9bc 6bd0 89bd
00000070: 3aea 383d e56f 32bd 77f8 bdbc 6da2 adbd
00000080: b7cb 903d d5e2 c0bc c1ae 143d e2f4 14bb
00000090: 19a5 f9bc 0e9d a33d 1d74 e7bc 1b5b c23c
000000a0: 3bbf 203d ff1b 473c 3782 2b3c 3c6e 1abc
000000b0: 40db 963d ee41 11bd b08d 3abb f8bf 7b3d
000000c0: 8667 98bb 187b a3bc 45f9 df3c c8bf acbc
000000d0: 897b 2e3c a4ed efbc 2a7e 93bc b425 a2bd
000000e0: ae60 49bc 04a0 1abb b186 433d e739 873d
000000f0: 3d6f 603d c315 90bd 4246 6a3d b806 843d
00000100: a6fe c5bc 7eae d43b 8e1e 1cbd f843 ff3c
00000110: a61d ac3d 037c 953c d723 533d ef19 49bc
00000120: 4b07 8ebc f083 673d 18e9 e939 7aa0 30bd
00000130: 31c8 89bc 6660 3ebd 7349 863c b7b2 50bb
00000140: 5c5e 883d a8e5 0bbd b1e9 c73c 4ed0 e5bc
00000150: 8720 39bd 8c96 8e3d 5e45 e73c e3ac b2bc
00000160: 7a3d c73c 4275 0cbd bac1 e638 36bd 853d
00000170: f85d c4bc a037 dc3c 65b3 0ebb ee1c f73b
00000180: ba4d 2a3c 88de 693c d65a b83c de63 53bd
00000190: d0f4 aabd 4390 1cbd e154 733c 73a6 58bd
000001a0: 6db2 9ebd 0574 b03d adfc 43bd b502 14bd
000001b0: ad0f af3c 0ecc b9bd 9743 df3c e184 803d
000001c0: 49ab 1f3d 5622 433d 6e57 afbb be56 e8bb
000001d0: 1051 ac3b f852 08bd d4f6 3e3d 18f9 b03b
000001e0: 269c 64bd 9186 5a3c 717e 813c aba1 94bc
000001f0: da21 f43b b657 153d fbfa 17bd 167b a8bb
00000200: aa93 afbb 56a1 b33c 9dc9 8dbc ce62 213c
00000210: 3161 4cbd 7a26 563d e38b 2cbc 0555 86bd
00000220: 5d88 b3bd 2214 42bd 5f00 5b3d f771 51be
00000230: 7eba 933d b94b 54bd e87d 363c c1f4 b9bc
00000240: e083 56bc d869 5d3d 3a8f 80ba 55be 9c3b
00000250: 08b5 d43c 6e66 403d fd2d 083c 7e2c 2d3d
00000260: df7c 00bd 48ad a7bc a91d e83c 26e7 8ebb
00000270: a80e 5abc ab9c 303b d582 10bd e05f febb
00000280: ce8c 463d fe91 43ba fe69 adbb 9ca4 003d
00000290: 7c45 b7bb 622d 14bd d51d 19bc de5c 53bd
000002a0: 60bf 2fbd b7ea a4bd 679e 133d 1892 97bd
000002b0: fabd 363b fbca 233d a71f ba3c b133 d43c
000002c0: 11b5 34bd eb00 fdbc dfc6 5a3c ad03 04bd
000002d0: 3460 a03c ebe5 cb3d bca5 473c 7f94 7a3d
000002e0: 0e37 443d bb82 cdbc 41f6 2dbd c31d 5e3d
000002f0: 667f 1ebd ea37 87bd ceac 813d f6b9 143d
00000300: b072 fcbc 0028 3e3c 6225 a73a 4886 733d
00000310: d326 c33c 72ea 253d 965c 0fbd 9b44 423d
00000320: 0d22 aeba 0211 1dbd 294f 4c3d 5556 f3ba
00000330: de14 3a3d 0aa9 173d fd7e 7d3d fcc7 143d
00000340: 0db2 773d def6 633d 9af1 e5bc 850c 203d
00000350: 758a 823c 3c89 f93b 8ae4 b03d 4b4a 5bbc
00000360: 1f0a bebc dcd2 40bc f18a 1a3d 6ebe a93d
00000370: 2200 6dbd d1e6 463d e806 f03c e79f 8f3d
00000380: 5f52 e6bc ff75 153d 0c6d cc3c d60e 39bd
00000390: e709 f8ba 987a 69bc a4ec 493d ac8f 7f3d
000003a0: be2e 353c 4ebf 96bc 3182 34bd 2d77 643d
000003b0: 4d28 5dbd f215 1f3d dc6b e53c 7c7f 29bd
000003c0: 5153 593d ea24 3f3b 635c 06bd 6f4d 883c
000003d0: 026a d03c c4aa dd3c 7df8 103d 19a5 b6bd
000003e0: b246 c73c abe7 97bd e565 9cbb 76a7 0abc
000003f0: 5058 67bd 2ca4 8f3d bcf5 9bbc 12b6 90bd
0.010838878 0.005579415 0.006631396 -0.030755194 -0.0037885604 -0.017809877 -0.024322106 -0.040160146
0.06480003 0.015756961 -0.015318151 -0.02727095 0.028894871 -0.056353915 -0.012409042 0.039572418
0.030900506 -0.053949542 -0.018444903 -0.040336203 0.02034984 0.044673916 -0.009312162 -0.005629836
0.008854038 -0.07056429 -0.022624018 -0.06729206 0.04514525 -0.043563742 -0.023189766 -0.08478246
0.070701055 -0.023545662 0.03629947 -0.002272897 -0.030474233 0.0798894 -0.02825361 0.023725083
0.03924487 0.012152671 0.010468057 -0.009425696 0.07366037 -0.035463266 -0.00284658 0.061462373
-0.004651013 -0.019956157 0.02734054 -0.021087542 0.01064957 -0.02928812 -0.018004496 -0.079173476
-0.012291117 -0.0023593912 0.047735874 0.06602841 0.054793585 -0.07035401 0.05719591 0.06446594
-0.024169277 0.0064905277 -0.038115077 0.03116034 0.084040925 0.01824761 0.05154785 -0.012274249
-0.017337462 0.05652231 0.00044614892 -0.043121792 -0.016819092 -0.04647865 0.016392445 -0.0031844804
0.066586226 -0.034154564 0.024403425 -0.028053429 -0.045197036 0.06962308 0.028231319 -0.021810954
0.024321306 -0.034291513 0.00011003339 0.0653023 -0.023970589 0.026881993 -0.0021774408 0.0075412905
0.010394508 0.014274247 0.022504251 -0.051608913 -0.083474755 -0.038223516 0.01485178 -0.052893113
-0.07748876 0.08615879 -0.047848392 -0.036135394 0.02136978 -0.090721235 0.027253909 0.06275345
0.03898171 0.047640167 -0.0053509986 -0.0070904186 0.005258687 -0.03328225 0.046622112 0.005400788
-0.055812977 0.013337747 0.015807362 -0.018143496 0.0074503245 0.0364606 -0.037104588 -0.005141626
-0.005358179 0.021927517 -0.01730805 0.009850217 -0.049897376 0.052282788 -0.0105313985 -0.06559185
-0.087662436 -0.04738248 0.05346715 -0.2045363 0.07213305 -0.051830027 0.011138417 -0.022699716
-0.013092965 0.05405602 -0.000980831 0.0047834315 0.025965229 0.046972685 0.008311746 0.04227876
-0.031369086 -0.02046837 0.028334456 -0.004361051 -0.013309158 0.002694885 -0.03528102 -0.007762894
0.048474126 -0.0007460414 -0.0052921763 0.031406984 -0.005593 -0.036176093 -0.009345491 -0.051602237
-0.04290712 -0.08052581 0.036039736 -0.07400912 0.002788423 0.0399885 0.022720171 0.025903555
-0.04411799 -0.030884227 0.013353079 -0.032230068 0.019577123 0.09955963 0.01218551 0.061176773
0.047904067 -0.025086751 -0.042471174 0.0542276 -0.038695715 -0.06602462 0.06331788 0.03631016
-0.030816406 0.011606216 0.001275223 0.059454232 0.023822224 0.040506788 -0.035000406 0.04742871
-0.0013285294 -0.038346298 0.04988018 -0.0018565158 0.045430057 0.037026443 0.061888684 0.036323532
0.060472537 0.055655353 -0.028069306 0.03907444 0.015935162 0.0076152366 0.0863734 -0.013384412
-0.023198185 -0.011769023 0.03773016 0.08288275 -0.057861455 0.048559967 0.029300168 0.07012921
-0.02811545 0.036489483 0.024954341 -0.045180164 -0.001892385 -0.01425042 0.049297944 0.062392876
0.0110585075 -0.018401768 -0.044069473 0.055777717 -0.053993512 0.038839288 0.028005533 -0.041381344
0.053057972 0.002916629 -0.03280295 0.016638486 0.025441173 0.027058966 0.035393227 -0.08918209
0.024325702 -0.07417234 -0.004772889 -0.008462777 -0.056480706 0.07013735 -0.019038074 -0.07065977

decoder.0.bias f4 [32]
00000000: bca0 a5bc 28ed 6d3d acda 943c 4800 d8bc
00000010: 1634 7d3c 28e6 a9bc 94e9 5f3d 68c0 413d
00000020: 90cf 243d a68d 31bd aadb b03c 811b 0fbc
00000030: a033 c7bc df7d 093d 1467 0c3c 876a b7bb
00000040: 186b 3a3d 0352 c5bc 14ab 303d 1f88 123c
00000050: 29c5 563d 4c57 543c 71c1 d6bb 2443 163d
00000060: 03d9 cabc 6024 42bd 892f 1ebd fd39 a93c
00000070: 84f8 5fbc 9600 413d 20cd 2a3d 68cb 61bd
-0.020218246 0.058087498 0.018170677 -0.026367322 0.015454313 -0.02073963 0.054666117 0.047302634
0.04023701 -0.043347977 0.021589119 -0.008734585 -0.024316609 0.033567306 0.008569498 -0.005597416
0.04551229 -0.024086958 0.043131903 0.008943587 0.05243412 0.012960266 -0.0065538217 0.036685124
-0.024761682 -0.04739797 -0.03861955 0.020657534 -0.013670091 0.0471197 0.04169953 -0.055125624

decoder.1.weight f4 [32]
00000000: a364 7f3f 00ec 823f 6fec 7f3f 5c13 803f
00000010: 8209 853f 8769 823f ada0 703f 1fb4 743f
00000020: 33c2 843f 182d 6b3f c9ed 883f c45b 7e3f
00000030: f887 743f 7fb2 863f ca3e 803f 8857 823f
00000040: b6ab 813f 5f7e 723f 2150 863f 700a 7d3f
00000050: a835 693f cbab 793f 6532 763f c23e 773f
00000060: 9a99 813f ebc0 843f 3751 643f c4ba 7b3f
00000070: 81c7 843f dc6a 833f ddc9 813f 0b50 843f
0.99762934 1.0228271 0.99970144 1.0005908 1.0393527 1.0188454 0.9399517 0.9558734
1.0371765 0.9186568 1.0697566 0.99358773 0.9551997 1.0523223 1.0019162 1.0182962
1.0130527 0.94724077 1.0493203 0.9884405 0.910975 0.9752776 0.96170646 0.96580136
1.0125 1.0371374 0.89186424 0.98331857 1.0373384 1.0266986 1.0139729 1.0336927

decoder.1.bias f4 [32]
00000000: 9fb8 b63c 5a27 963d 3f2f 383d ce19 8c3d
00000010: dc7b 393d 3a88 b03c 673c 36bd a2c1 e13a
00000020: a7c2 ef3d 4d04 7bbd cd12 233e 08ce 163d
00000030: 928b 3fbd 84ee 243d fadd a83c 4041 1bbb
00000040: 47c5 443b 5616 34bd 1e04 543b 0044 983a
00000050: cc2f d7bd 5229 1abc dab0 80bc a52e 74bd
00000060: 28a9 a9bc 4b72 983d e0f1 cabc 0dda 753d
00000070: 8165 713d 86a0 b43d e99c f33c 6083 40bd
0.022304831 0.073317245 0.044966932 0.06840859 0.045284137 0.021549333 -0.044491198 0.0017223845
0.11707049 -0.0612834 0.1592514 0.03681758 -0.046763964 0.04026653 0.02061366 -0.0023690015
0.0030024813 -0.043966614 0.0032351087 0.0011616945 -0.105071634 -0.009409266 -0.01570933 -0.059614796
-0.020710543 0.07443675 -0.024773538 0.060022403 0.058934692 0.0881968 0.029737907 -0.04700029

decoder.1.running_mean f4 [32]
00000000: 6afd 92be 6e30 aebe 711d 6abe 6123 9cbe
00000010: 5f48 78be 49c6 b6be c502 dbbb e4c5 1bbe
00000020: 64dc 82be 86bd b2be 73ea aebd 0e95 7fbe
00000030: 3c24 8bbd 5f31 cabe 3246 4dbe a2d7 80be
00000040: fcbd 02bd 8f20 c7bd 5060 b2bd a4ba 5dbe
00000050: 24a7 093f 42c2 7dbe b31c 0f3e be1f bb3e
00000060: fbfb 41be d4f4 0abf 00c6 aabe 2b84 a2be
00000070: e5ed c6be 6070 27be 698f b23c 2f99 1dbd
-0.28708965 -0.34021324 -0.22862794 -0.30495742 -0.24246357 -0.35698155 -0.0066836798 -0.15212208
-0.2555877 -0.3491022 -0.085408114 -0.24959204 -0.067940205 -0.39490792 -0.20046309 -0.25164515
-0.031919464 -0.09723007 -0.087097764 -0.21653229 0.5377066 -0.24781135 0.13975792 0.36547655
-0.18943779 -0.5427983 -0.33354187 -0.3174146 -0.38853374 -0.16351461 0.021796899 -0.038476165

decoder.1.running_var f4 [32]
00000000: 0a8f 073f 3d01 323f 4ed5 443f f97d 2e3f
00000010: f085 b33f 4d33 883f 3aed 0040 631c 493f
00000020: b6d1 3b3f e954 753f 8e56 443f a179 b73f
00000030: 686b 433f cf18 913f eb31 083f ebec dc3e
00000040: 4df6 553f 1a17 193f 9c00 0f3f bd4d e33e
00000050: bc28 5c3f cd49 4a3f 0516 8a3f f6d6 2e3f
00000060: 4de3 003f 625c 473f 6292 c13f 09a7 9f3f
00000070: 401f 533f 9da2 253f 2931 113f a272 293f
0.52952635 0.6953314 0.7688798 0.6816097 1.402525 1.0640656 2.0144792 0.7855894
0.7336687 0.9583269 0.7669457 1.4333993 0.76335764 1.1335696 0.5320117 0.43149504
0.8357895 0.59800875 0.55860305 0.44395247 0.85999656 0.7901886 1.078797 0.68296754
0.50346833 0.7787534 1.5122797 1.247285 0.8246956 0.64701253 0.5671564 0.6619054

decoder.3.weight f4 [32, 16, 3, 3]
00000000: d1d9 4c3b 7e3a 223b 3534 f63c 8808 b9bd
00000010: 5626 fa3a 3d8f e43d d518 83bc 1955 493d
00000020: c087 463e a6ed 363d 5021 b83b 8695 5fbc
00000030: 716e 513c 60e6 203d afe7 5f3d 1668 f1bc
00000040: 0ef5 303c e1db 4b3d 9e1c 4b3d e884 0abd
00000050: 894d ec3c fa5a 5dba 8d9c 9dbd 740d 763c
00000060: 57dd 8f3d 2422 a23c aae1 343d becf 453d
00000070: abe6 513d a53b bb3d 3f5b 24bd 938a 06be
00000080: 3c6b 2f3d db3b 3a3d ac0d b33d 22b3 883d
00000090: 4364 843d c408 793c a557 98bd d39b 7fbd
000000a0: 8bbd b93d 338e 993c c4a7 b1bc 0737 3a3d
000000b0: 85fb b33d 14d9 d53c 0f25 42bd 2d3e 9a3b
000000c0: 4b62 993c 8723 673d c74a aa3d 3d28 8abd
000000d0: 4577 893d 2cfb ec3a ea43 91bd 2e6a 853c
000000e0: e59e c93d 47f8 2cbd 342a b3bd 9ba7 c23c
000000f0: a168 e8bd 457c 60bd f29b a2bd c8bd 06be
00000100: c14e 963d b70b b73d a61b 16bb 56c5 5a3d
00000110: 5c86 883c 1ad1 913c bb85 3abd 9944 7ebd
00000120: 4f1f 5abd 781b 203d 4e94 7a3d d6e3 ca3c
00000130: e69c 10bc 2ed4 13bd bc9f 89bd 5cf4 1f3d
00000140: 09c7 333d 77fb 943a 32b5 833c 79db a03c
00000150: f794 c83a a6f6 f8bd 911f 903c ee99 e13c
00000160: 5ed6 a43d 1f05 5a3d 4915 243d 1ecc 6e3d
00000170: 543a ed3c 8121 92bd cb9d fa3b 2b27 01bd
00000180: c7e6 b1bc 48a6 df3d c005 cabc e795 1ebb
00000190: edf2 01bd e8bd 0d3d d0cf b8ba dbf2 5dbd
000001a0: 7cd4 863d 052b b23c 1acd edbb f7b4 7e3d
000001b0: 6903 25be a7fe 2dbd 35dd 5a3d b812 58bd
000001c0: c5ca 223c bf7b 033d 3c10 94bd bf6e 8ebd
000001d0: aa43 7d3d 6c84 afbc d042 b43c b846 9ebd
000001e0: 2ba5 41bc 7465 04bd fb29 1b3c 4b7d 63bd
000001f0: 4a75 123e 6cb9 f8bb 67f7 22bd 7112 8c3c
00000200: 4691 893d 065e a5bd 0242 34bd 2734 cb3c
00000210: d66f fa3c 46f1 8d3d cd51 b63d b5d2 01be
00000220: 79f9 313d d545 b6bd 6ca0 ef3c 54ec 063c
00000230: 68ad 2e3d a6a0 203c 0bdc 90bc 7c6a c4bd
00000240: 7d72 77bb d1ec dfbc f6ae 813d 8022 01b8
00000250: 74ee f03c 6e62 5e3d b3e7 19bd 3580 8fbc
00000260: d9bb 9d3d 416a f4bc dbc8 22bd 188e ed3b
00000270: 09d9 27bd 3a79 4a3e 97e6 863d 95a1 f7bb
00000280: aa7b 6c3d d47e bb3c 7c20 ab3d 98fb 35be
00000290: ea46 b93d 8f6f da3d 00f1 9dbc 25bb 583d
000002a0: 61a0 533c 4909 cabc 8f02 aa3c e5f0 473d
000002b0: 48a1 beba 5b42 3c3d 569d 26bb 9e16 a5bd
000002c0: 2820 ed3c eff4 89bc 1413 2d3c 6ddf bc3d
000002d0: 8520 b03d 12d9 11be 7370 b13c 4ed9 95bd
000002e0: 4f57 ea3d bea0 563d 1f78 903d f4a0 443b
000002f0: 5817 d23b e150 60bd b640 393d 1e28 dcbc
00000300: 0e8b 72bd 1a56 74bc c8f5 b23d 2c66 f5bd
00000310: ae2c 543d b638 06bc 334f dcbb 2776 57bc
00000320: 7810 b8bd 69a0 983d 42df d73d c20a f43d
00000330: 4b71 03bd 36be 2dbd 1ac1 3fbc b681 2fbc
00000340: eaf9 40bc 478f f1bc 50a1 3a3b 4c6a 813d
00000350: b72a 52bd 72a7 f13c f358 4f3d 9bbd cbbc
00000360: 2283 5f3d b9a7 313b ad32 dc3c 9851 febb
00000370: 46b4 bbbc 4e82 09bd c665 98bb c315 7c3c
00000380: 7867 88bd 76e4 cb3d f1eb 933d b3bc 153d
00000390: 867b f13c 7390 61bd 254b 2b3d b976 053d
000003a0: 5150 113b f6a3 203d ddaf 0ebe 081b 9dbc
000003b0: 597f 92bd e397 d33d ee32 54bd 9eab 313d
000003c0: d508 01be 86bb b4bc 45fd b83a 3ddf bb3c
000003d0: 989c 57bd 5faa 073c 3f21 ac3d 760c bebd
000003e0: 2715 e03d efc9 783d a8ac 803d c791 113d
000003f0: 72bb 7e3d de00 2a3c 9720 4a3d a290 a43d
0.0031257758 0.0024754102 0.030054191 -0.0903483 0.0019084911 0.11160133 -0.016003052 0.04915342
0.19387722 0.044660233 0.0056192055 -0.013646489 0.012782679 0.039282203 0.05466431 -0.029468577
0.010800613 0.04977024 0.04958784 -0.033818156 0.028845565 -0.00084440375 -0.07695875 0.015017856
0.07024639 0.01979167 0.044160523 0.04829382 0.051245373 0.09142236 -0.04012608 -0.131388
0.042826876 0.04546724 0.08742842 0.06674792 0.06464436 0.015199844 -0.07438592 -0.062404465
0.090693556 0.018744564 -0.021686442 0.045462634 0.08788208 0.026104487 -0.047398623 0.004707119
0.018723628 0.056430366 0.08315044 -0.06745956 0.06712202 0.0018080226 -0.07093032 0.016285982
0.0984476 -0.042228963 -0.08748284 0.023761561 -0.113480814 -0.054806013 -0.079399005 -0.13158333
0.0733924 0.08937781 -0.0022904663 0.05341085 0.01666563 0.017799903 -0.04553769 -0.06207714
-0.053252514 0.039088696 0.06117659 0.024766844 -0.00882647 -0.036091022 -0.0671992 0.0390514
0.043890987 0.0011366446 0.016077612 0.019635903 0.0015303184 -0.121564195 0.017593177 0.02753922
0.080487 0.05322754 0.04005936 0.05830013 0.028958477 -0.071352966 0.007648205 -0.031531494
-0.021716489 0.109203875 -0.024660945 -0.0024198235 -0.031725813 0.034604937 -0.0014100019 -0.054186683
0.06583497 0.021749029 -0.007257116 0.0621843 -0.16114582 -0.042479184 0.053433616 -0.052752227
0.009936039 0.032100435 -0.07229659 -0.06954717 0.061832108 -0.021425448 0.022004515 -0.07728332
-0.011819164 -0.032323316 0.009470458 -0.05553941 0.14302555 -0.0075904634 -0.039786723 0.017098637
0.06717162 -0.08074574 -0.044008262 0.024805142 0.030570906 0.06930785 0.08902321 -0.12678035
0.043450806 -0.08900038 0.0292513 0.008235056 0.04264584 0.009803927 -0.01768305 -0.09590623
-0.003775745 -0.027334603 0.06332199 -3.0788127e-05 0.029410578 0.05429309 -0.03757448 -0.017517189
0.07701845 -0.029835822 -0.039742332 0.007249605 -0.040978465 0.19772807 0.0658695 -0.007557104
0.057735123 0.022887625 0.08355805 -0.17771757 0.09046729 0.10665809 -0.019279957 0.05291285
0.012916655 -0.02466263 0.020753173 0.04881372 -0.0014543915 0.04596172 -0.002542337 -0.080609545
0.028945997 -0.016840426 0.010563631 0.092223026 0.085999526 -0.14242962 0.021660065 -0.07316838
0.11442434 0.05239939 0.07054161 0.0030003162 0.006411474 -0.054764632 0.04522773 -0.026874598
-0.059214644 -0.014913106 0.08738285 -0.11982378 0.051800422 -0.008192232 -0.0067233085 -0.013150728
-0.08987516 0.07452471 0.1054063 0.119161144 -0.032090466 -0.042417727 -0.011703754 -0.010712078
-0.011778334 -0.029487265 0.0028477497 0.06319103 -0.051310267 0.02949879 0.050621938 -0.024870684
0.054568417 0.0027108027 0.026879633 -0.0077611916 -0.02291311 -0.033571534 -0.004650804 0.015386048
-0.0666036 0.09955685 0.072227366 0.03655691 0.029477846 -0.055069398 0.04181971 0.032583926
0.0022173116 0.039218865 -0.13934274 -0.019177929 -0.07153196 0.103317045 -0.051806383 0.043376558
-0.12601025 -0.022062074 0.0014113566 0.022933597 -0.052639574 0.008280366 0.08404779 -0.092797205
0.109415345 0.060739454 0.062829316 0.035539415 0.06219048 0.010376183 0.049347486 0.08035399

decoder.3.bias f4 [16]
00000000: b0d9 14bc 4227 153c 4f5d 703d 7f61 90bd
00000010: 5ce3 7abd 5bdc b1bb 3736 5c3d df05 84bc
00000020: 47aa 8dbd 8cc8 643d 4c4e 6abd a0d9 8a3d
00000030: 3ce4 4cba 10a5 5f3d 8bb5 46bc 360b 90bd
-0.009085104 0.009103598 0.058682736 -0.07049846 -0.061251983 -0.0054278797 0.05376264 -0.01611608
-0.069172435 0.05585532 -0.057203576 0.0677979 -0.0007815992 0.054600775 -0.012128244 -0.07033388

decoder.4.weight f4 [16]
00000000: 5e6c 733f 8e98 823f f7e7 733f 64ef 713f
00000010: 4b84 803f b74b 8a3f d0d2 753f 537f 7c3f
00000020: fb23 713f fd68 6f3f c1eb 853f 1111 813f
00000030: 993d 6c3f 2a4e 7f3f d01b 873f 65ac 6f3f
0.9508723 1.0202806 0.95275825 0.94505906 1.0040373 1.0804356 0.960248 0.9863178
0.94195527 0.93519574 1.0462571 1.0083333 0.9228149 0.99728644 1.0555363 0.9362243

decoder.4.bias f4 [16]
00000000: 877e 9abd 6210 453d 977c 773d 4241 ce3c
00000010: ca2a f03c 9999 913d 301b e7bc 69f2 f1bc
00000020: b3a1 43bd 3e69 6d3c d362 7c3d fb31 4c3d
00000030: 7530 bbbc ffdb 753b d0f2 6d3d 7c0c 3dbd
-0.075436644 0.048111327 0.060421553 0.025177602 0.029317278 0.071093746 -0.028211206 -0.029534535
-0.04776163 0.014490424 0.061617684 0.049852353 -0.022850255 0.003751516 0.058092892 -0.046154484
